results/model.pth (torch, 109117 bytes, 6 tensors)

net.0.weight f4 [128, 122]
00000000: bb28 6e3d e1d7 413c 8d37 2e3e a37f 643d
00000010: 0e09 753f 8864 143d 100f 023e 6e38 323d
00000020: 271e a03d 0ab0 8f3e ba58 a1bc 82ad 363e
00000030: 4ed2 963e 4146 30be 468b 25bc b812 403c
00000040: 3e3b adbd 5da8 013f 6be3 893c dcf5 cd3e
00000050: e1cc c93e 1354 43bd 1fcc 8d3d d019 99bc
00000060: 0c16 5f3d fb6a fbbe 7318 4abd cd35 113a
00000070: c97d 713e 94cf 143f 859f 613d 3bb2 55bd
00000080: 8ecc cbbd 0a98 f8bd e9b9 bbbd 7b5b a83d
00000090: 535f 053f 21db afbd 7d6e ba3d d815 4abe
000000a0: c041 0e3f 4e62 ec3e c3be ad3d 2b3b 393f
000000b0: 771e 4d3e 3bb7 e93e 589c 1f3f af5a 2c3f
000000c0: ec29 f83e 33dc 063f baf8 8d3e f010 2b3f
000000d0: 8b68 e53e fa68 003f f1a7 cf3e 5d16 163f
000000e0: d386 57bd bae5 2a3f a46f 223f f85a f7bc
000000f0: 4e71 553e c026 f03e e95f c53e 4fb5 093f
00000100: b528 8e3e 20fb 063f d62d c73e 3ab4 b53e
00000110: cfcc fe3e a14f 803e c445 323f 3c51 2a3f
00000120: 09d1 1a3f 773f 183f 5ad0 c93e a75b 823e
00000130: 4253 f23e f685 163f 62cc 0f3f 2233 f63e
00000140: 1d8f bc3e e0b5 433e ea5d 193f 4183 ac3e
00000150: 65ab 103f 90ba 613e d641 033f 0bb4 a73e
00000160: 47fa 053f 018f 683e dc3b cc3e 7170 193f
00000170: 7cc3 2e3e 4bd9 6d3e 1724 c03e 3698 db3e
00000180: 9f34 103f aecd a13e 0541 303f 5acd aa3e
00000190: 164d 283f 9d2d 843d a6af b23e 2688 733d
000001a0: c4e9 c73e a70a 0e3f 4820 663e 17fe 383f
000001b0: 1d42 2e3f e586 113f 459b f73e 8f67 df3c
000001c0: 9616 2cbc 3c54 28bd c4f9 1e3f b44f fd3e
000001d0: fbbc 673e a441 113e 3888 213d 4a24 203e
000001e0: a348 f23d c835 153e b59a 0f3f 8ae0 a6bf
000001f0: d9b1 923d d3ec abbd a7dd f73e ce5f 43bd
00000200: b40c 763d 2fff c93c 259b a63e 27e0 91be
00000210: 21ac 7abe 713d ba3b 977f e6bf 5dac be3d
00000220: bdb3 12bd 285d c0bc 85c3 4dbd 5999 2c3c
00000230: 8e50 1ebe 32b5 f2be e922 d0bf ad2a a73d
00000240: e9a1 3ebd c698 84be e5fd 3e3d 2ba8 233d
00000250: 2636 3abe 8c22 9abd 667c 8fbd 8727 843e
00000260: 346d b33e b66f 0d3f 7d6d 63be a5ba 0f3f
00000270: afef b73d ff71 263e 9792 efbe ed3c 09be
00000280: c471 05be e4ef 3c3c ec3a 8d3c 3970 da3c
00000290: adf2 6a3d 34c7 8b3c 7f59 103d 8cb3 80be
000002a0: 02a2 543d eb9d a33d 0ae7 f03d 8164 123e
000002b0: 0028 2a3d de82 6f3d fc84 393e c2c7 183e
000002c0: 6493 47bc 574c 8fbd 7685 ac3d e670 e73d
000002d0: c7da 093e bcce 9c3c ef9f 3d3b 6259 a3bd
000002e0: b39e 603d 7730 993c 65e4 1b3e 513e 69bd
000002f0: 6354 f23c f1fa 233c 8219 723d 9dd5 99bd
00000300: e0fa a23d 4387 5b3d 2a4b 543d 64a4 203d
00000310: 5e69 033e b0d2 2bbd 48a4 093e bc15 4fbc
00000320: 708f ce3d 9e2e 9f3d 6721 f43d 79d5 8a3d
00000330: fadf 253d 9da6 283d 1a3e c23c 8e10 633e
00000340: b9e4 a5bc dfd2 913b 6042 cc3d cd6a bc3d
00000350: dfe4 093d 6ce8 923c e518 4c3d ee4d f93c
00000360: d600 cabb b06c d8bd 6fd5 d43d 0668 103e
00000370: b6b2 5c3d f5eb 553d ae2a cb3d 8cb3 2d3e
00000380: 018f f33d 4de6 7cbc 29f6 90bd 6d7d 013e
00000390: 4a0e bbbd 5ac3 8c3d b59f c7bc 9b74 903d
000003a0: 6dda a43a fe7f 6c3c 9e16 47bd 6d48 453d
000003b0: 9da0 fbbc dabf 02bc f8ec 783d 52cc 5abd
000003c0: 18bf 78bd 3353 8e3d 158f eebc 40b3 39bd
000003d0: 4c1b c33d fb75 ddbd 73d7 5e3d 2574 a43c
000003e0: 7b3d 673f 399f c4bc 9ff8 4ebe 3f70 d4bb
000003f0: 0d63 2f3e d8e4 76be e22a 32bc 0d35 20bd
0.058144312 0.011831255 0.17013378 0.055785786 0.9571694 0.036228687 0.12701058 0.043510847
0.07818251 0.28063995 -0.019695628 0.17839625 0.29457325 -0.172143 -0.010104006 0.011723213
-0.08458565 0.50647527 0.016832074 0.40226638 0.39414123 -0.0476876 0.06923699 -0.018689066
0.054464385 -0.49105057 -0.049339723 0.0005539328 0.2358314 0.5812924 0.05508377 -0.052171927
-0.09951125 -0.12138374 -0.09166319 0.082205735 0.5209858 -0.085867174 0.09103105 -0.19734895
0.55569077 0.4616875 0.084836505 0.7235591 0.20031153 0.45647606 0.62347937 0.6732587
0.48469484 0.5267975 0.27728826 0.6682272 0.44806322 0.5016018 0.40557817 0.58627874
-0.052618813 0.66756785 0.634516 -0.030194744 0.20844004 0.46904564 0.38549736 0.5379228
0.27765432 0.52726936 0.38902158 0.35489064 0.49765632 0.25060752 0.69637704 0.66530204
0.6047521 0.5947184 0.39416772 0.2546055 0.47329146 0.5879816 0.5617124 0.48085886
0.36827937 0.19112349 0.59908926 0.3369389 0.5651153 0.22043824 0.5127233 0.3275455
0.5233502 0.22710802 0.3988942 0.59937197 0.17066759 0.23227422 0.37527534 0.42889565
0.56330293 0.31602234 0.6884921 0.33359796 0.65742624 0.064540125 0.34899634 0.059456013
0.39045537 0.55485004 0.22473252 0.7226271 0.6806963 0.5684646 0.4836065 0.02727106
-0.010503432 -0.041095957 0.6209986 0.4947487 0.22630684 0.14185196 0.03943655 0.15638843
0.118302606 0.14571297 0.5609544 -1.3037274 0.07162828 -0.0839478 0.48411295 -0.04769879
0.06007071 0.024657814 0.3254024 -0.28491327 -0.24479724 0.005683594 -1.8007687 0.093102194
-0.035815943 -0.02348192 -0.05023529 0.010534608 -0.15460417 -0.47403866 -1.6260654 0.08162437
-0.04654113 -0.25897807 0.04662885 0.0399553 -0.18184718 -0.075261205 -0.07006149 0.25811407
0.35044253 0.5524858 -0.22209735 0.5614417 0.08981263 0.16254424 -0.46791527 -0.13402148
-0.1303168 0.011531804 0.01724001 0.02666484 0.05736034 0.01706276 0.0352416 -0.25136983
0.051912315 0.07989105 0.11762817 0.14296152 0.041542053 0.058474414 0.18117136 0.14919952
-0.012181137 -0.069969825 0.08423893 0.113008305 0.13462363 0.019141547 0.002893444 -0.07976033
0.054838847 0.018699868 0.15223844 -0.056944195 0.029581254 0.01000856 0.059106357 -0.075114466
0.07958007 0.053595793 0.051829495 0.039219275 0.12833163 -0.041948974 0.13441575 -0.012639459
0.10085952 0.077725634 0.119204335 0.06778998 0.040496804 0.04117452 0.023711253 0.22174284
-0.020250665 0.0044501866 0.099735975 0.09200058 0.033665534 0.017933093 0.04982843 0.030432668
-0.0061646504 -0.105676055 0.10392272 0.14102182 0.05388137 0.05222698 0.0992025 0.16963023
0.1189251 -0.015435767 -0.07078201 0.12645502 -0.09133585 0.06873198 -0.024368146 0.07053491
0.0012577303 0.014434813 -0.048605554 0.048164774 -0.030716235 -0.007980311 0.060772866 -0.05341751
-0.060729116 0.06949463 -0.029120961 -0.04533696 0.09526691 -0.108135186 0.054404687 0.020074913
0.90328187 -0.024001705 -0.20212029 -0.0064831073 0.17127629 -0.24110734 -0.010874482 -0.039113093

net.0.bias f4 [128]
00000000: bc37 04bf f688 66bd db05 98bd 59ba 5fbd
00000010: e48b dfbc 8a77 e6bd 2f71 82be cc0e 393d
00000020: 0b29 a0bd da86 363d 8a8f 52be b03a 8f3c
00000030: 5339 0cbd 1bb7 c33c 3200 1abc 8bff b9bd
00000040: d325 69bd 80f8 e8bd 32bd 8cbe 19f5 7bbd
00000050: 4e2e f5bc 66fa 41bd 0cff 46bd 199e 2dbd
00000060: e26a 3cbe 844c 36bc 0762 3dbe 3f07 22be
00000070: 75a2 a73d 55a4 413d 2c34 013e 20ad 0cbe
00000080: eab2 9b3d 1b56 aebd daf4 f63d 576a 36bd
00000090: 9e02 1dbe 4578 d7bc aa5a 23be 3217 b8bc
000000a0: 839c 8abd 4337 363d d5f8 7bbe 5428 843c
000000b0: 31cb afbc 07b8 5abe a7d8 03be aa81 c9bd
000000c0: dc24 75be 3182 b8bd 69f4 f9bd a321 8abc
000000d0: 2b79 a4bc a199 9f3d e38e 7abd 6d22 e3bd
000000e0: f1c1 24be 27a9 bbbd 3b64 ffbd ed3b 9cbc
000000f0: 35bf 293d 9d7a 973d 8f35 0fbe 8b55 0cbd
00000100: 00bd bdbd d5fc 64be ef54 17be 33af 12bd
00000110: 2b70 1cbe 0074 bebd c557 46be 4a89 7abd
00000120: 3b7d 4f3d a40c 33bd d1e0 44be 8f1c 053d
00000130: ef00 d8be f8a5 3dbc e2a9 25be dacd 8cbe
00000140: 8439 cabc d5ab e7bd 2256 213a 67f3 563d
00000150: bf8a cc3b 78b5 05bd 8e7e eb3c 8aa6 b6bc
00000160: d58e 70bc 1e57 03bd 7ec9 b43b f410 c33c
00000170: b07d a7be c9ee a83c f2c6 153d 1ed1 05be
00000180: 290b c9be e2b3 c1bd 1385 bfbd 44b8 e2bc
00000190: ece0 0abe b870 5cbe 3863 54bd d0e9 9ebe
000001a0: 23af 6bbd e100 d4be b453 b8bd 911d 943d
000001b0: 847d afbc 3281 85bd 7183 1cbe d8c0 28be
000001c0: 8c50 b5bb bba7 3fbe 2ce0 37be 6828 58be
000001d0: 1a58 f0bd b902 bb3d 52ac 69be 62e7 82bd
000001e0: 18c3 bfbd 1e74 f1bd 5fe1 1bbe a3e0 a8bc
000001f0: 58d7 183d d20a 8abe dc52 88be aacf 29be
-0.51647544 -0.05628296 -0.07422992 -0.054621074 -0.027288385 -0.11253269 -0.25476977 0.045180127
-0.07820328 0.0445622 -0.20562568 0.017484039 -0.034234356 0.023891022 -0.009399461 -0.09081944
-0.056920838 -0.113755226 -0.27488095 -0.06151304 -0.029929306 -0.04735794 -0.048583075 -0.0423871
-0.18400148 -0.011126641 -0.18494426 -0.15823077 0.08185283 0.04727586 0.12617558 -0.13737917
0.076024845 -0.08512517 0.120584205 -0.044535007 -0.1533303 -0.026302466 -0.15952554 -0.022471998
-0.067681335 0.044486295 -0.2460664 0.016132511 -0.021459194 -0.21359263 -0.12875615 -0.098391846
-0.23939842 -0.09009207 -0.12204821 -0.016861742 -0.020077309 0.07792974 -0.061171424 -0.110905506
-0.16089608 -0.091631226 -0.12470289 -0.019071544 0.041442115 0.073964335 -0.13985275 -0.034261268
-0.092645645 -0.22362073 -0.14778493 -0.035811614 -0.15277164 -0.09299469 -0.19369419 -0.061166085
0.05065654 -0.043713227 -0.19226386 0.03249794 -0.42188212 -0.011575215 -0.16178086 -0.27500802
-0.024685629 -0.11312071 0.00061544974 0.05247822 0.0062421258 -0.032643765 0.02874687 -0.022296209
-0.014682491 -0.032065503 0.005517184 0.023811795 -0.3271308 0.020621674 0.036566682 -0.13068053
-0.39266327 -0.09458138 -0.09351554 -0.027675755 -0.13562363 -0.21527374 -0.051852435 -0.3103776
-0.05754007 -0.4140692 -0.0900034 0.07232202 -0.021422155 -0.06518783 -0.15284516 -0.16479814
-0.0055332836 -0.18716328 -0.17956609 -0.21109164 -0.11735554 0.09131379 -0.22819641 -0.06391789
-0.09363383 -0.11789726 -0.15222691 -0.020614928 0.037314743 -0.2696138 -0.26625717 -0.16583124

net.2.weight f4 [64, 128]
00000000: abea 86bd 804f 06be 6130 253d 9c62 70be
00000010: 1450 05be a9ed a83e 296f 83bd 2697 28be
00000020: 94c4 993d 7137 823d df72 183e a01e acbc
00000030: f53f 303e 1841 db3d 16b6 663e e6b1 1abd
00000040: ef15 80bc 48ca adbd 6ba5 0c3d 4f97 a8bd
00000050: 4822 43bd 55a3 02bf ea29 27be 54ca 47be
00000060: e28a 423e 7b57 62be 375d 03bf a452 09be
00000070: cd55 bcbc a99b 713d d79b f43d 4007 93bd
00000080: 9eec 813d 955e 5dbd 14cf b43d 7861 18be
00000090: bf79 c63d 1167 e3be 45f5 943b f54a 2d3d
000000a0: 808c f5bd 29f3 453d 949e 7ebe 384d f9bd
000000b0: 33e6 7fbe 3f42 c33b f0b4 8d3e bdb2 63be
000000c0: b813 223e 6cac dc3d 2d3e b2bc 6dba a8be
000000d0: f1b3 513e 479c 1e3e 07b3 93be a4af 773d
000000e0: 60b6 843c 4410 f9bc 010f 2dbd 9a04 04be
000000f0: 92fc 483b 4c8f cabe d05e 20be 5838 153f
00000100: 7f22 be3c a475 7d3e 2b61 683e a7b7 6dbe
00000110: 38a2 f93d d737 a8be 35b3 12be 855e ae3d
00000120: 6fd2 6dbe 2936 55bd 1e22 b9bd 8bf3 81be
00000130: 452d 663e 8898 47bd 2778 073e 7651 f23d
00000140: d500 35be 0ba7 e13d 72c1 e6bd 3a4f 16be
00000150: 5a0d 003e d3e2 833e 85a6 f73e 89f5 593e
00000160: 77f3 863e b334 7c3d be8f 86be f36d 413e
00000170: 08e3 dc3d 69df 0c3e 26bf fdbd f99d 03bc
00000180: 936e 3abd a577 64bd 2cec e8be f0a1 ce3e
00000190: 6407 a13d 7e7c a03d a79f 2dbd b27a e93d
000001a0: 97ad 8bbe a1cf f5bc e62e 24be 1677 1ebe
000001b0: fc6f a43e 17d9 0ebd 304d 4d3d 51b7 123c
000001c0: 50cc c2bd e25e 2bbe 2a13 69bd 7153 f53d
000001d0: 7406 dcbc 0168 4f3d 94a2 063e 4957 1fbe
000001e0: aa10 bfbd 327d 703d 2399 ed3d da9b e8bd
000001f0: fcfc b7bd faa4 1cbd 611f 083d b9ce 1b3e
00000200: 90e6 e23d 1a37 d7bb bc56 6abe 5049 b13e
00000210: 1d0e 1dbd edd8 4d3e ec39 7f3d f6a7 f9bd
00000220: b0b7 fbbc ff14 943e c34c 9cbe d05f 23be
00000230: da68 f43d ce09 18be 5a77 933d 9e91 bd3d
00000240: cd17 c33d 9f38 203e 99e5 61be 9aeb 7abe
00000250: e3cb 493e 9e70 f03c e9e3 543e ab49 543e
00000260: 0550 013b 6708 5f3e 8661 bebd 2e5d 653d
00000270: 43ec 1a3e e6e3 d2be 0bfa 14be 31ff 00be
00000280: 2c57 553d 3cd6 f83d edb4 b43d fc9d b9bc
00000290: 9f85 8cbe f92e f5bd 4fa4 3bbe 4e80 fdbd
000002a0: b886 e03c abc6 82bd 1672 47bd e14d d0bd
000002b0: 8f86 06bb f16d f03d b4b5 67bd 91db 7d3e
000002c0: 5324 5c3d 8250 94be 9035 42bd 7eda 283e
000002d0: 0ee9 b4be 7e53 23bd 252b 513d 3483 0a3e
000002e0: ac08 503d 45a8 9f3e 070d 1fbe 3d2b 9ebd
000002f0: 2d8c fdbd 5296 673d 2520 a2bd eecb febe
00000300: 5e32 063d d011 9abe 3dce 563e 79f1 643d
00000310: eb84 a03d 10ab 24be 91ad 483e 1582 c83e
00000320: 276e 683e 54aa b63e ad41 1a3e e0b4 98bd
00000330: 81fc 89bd da40 86be 92dd b0bc 4ef4 abbd
00000340: aa2c 843e 6ed4 31be 697f ba3e f448 a6bd
00000350: 0192 82b9 b989 b9bd bdaa 30bf 901f 103e
00000360: 327f 1ebf c757 003d 741d d43d 9363 4e3e
00000370: 133a b43d b9a5 11be f231 7d3e b487 04be
00000380: b76d b93d 6b52 ed3d 25e3 983d b6c5 d0bc
00000390: 9eed 95be c138 2e3e e599 163e 42de 4cbd
000003a0: 3506 3b3e b7bf 483e efb1 3e3e 299d f4bc
000003b0: 5b65 e43d 5562 1dbd c7cf 53be 676f 43bd
000003c0: 9a5b 843e 2e3f 40be 9863 25bd 51aa 32be
000003d0: 3577 81bd c225 8bbc 2495 063e 8b46 bc3e
000003e0: 2a2e b33d 7ac8 ad3d cb5f 513d fbec cfbc
000003f0: 30a0 bfbd 7351 133e 738d c3bd 1f8d c2be
-0.06587728 -0.13116264 0.04032934 -0.23475116 -0.13018829 0.3299382 -0.064176865 -0.16463909
0.075081974 0.06358231 0.1488757 -0.021010697 0.17211898 0.10705775 0.22530398 -0.037767313
-0.015635459 -0.08485848 0.034337442 -0.08231985 -0.047640115 -0.51030475 -0.16324583 -0.19510776
0.18998292 -0.22103684 -0.5131411 -0.13410431 -0.022990132 0.05898634 0.119437866 -0.07179117
0.06343959 -0.05404528 0.088285595 -0.14880931 0.0969119 -0.4441457 0.00454584 0.042307813
-0.11989689 0.0483276 -0.2486518 -0.121729314 -0.24990158 0.005958825 0.27677107 -0.22236152
0.15827835 0.10775074 -0.021758163 -0.32954732 0.20478798 0.15489303 -0.28847525 0.06047024
0.016200244 -0.030403264 -0.042250637 -0.1289238 0.0030668122 -0.39562452 -0.15661168 0.582891
0.023209808 0.24751908 0.22693317 -0.23214589 0.12189144 -0.32855102 -0.14326175 0.08514122
-0.23224805 -0.052053604 -0.090397105 -0.2538112 0.22478206 -0.04872945 0.13229428 0.11831944
-0.17676099 0.11018189 -0.112673655 -0.1467866 0.12505093 0.2575899 0.48369232 0.2128507
0.26357624 0.061573695 -0.26281542 0.18889599 0.1078549 0.13757099 -0.12389974 -0.008033269
-0.045515608 -0.055778164 -0.45492685 0.40357924 0.07862738 0.07836245 -0.042388584 0.114003554
-0.27280876 -0.030006232 -0.16033515 -0.15475115 0.32116687 -0.034875 0.05012244 0.008954839
-0.09511626 -0.16735414 -0.056903042 0.11978806 -0.026858546 0.050636295 0.13147956 -0.1556064
-0.0932935 0.058713146 0.11601474 -0.11357851 -0.089838 -0.03824327 0.03323305 0.15215577
0.110791326 -0.006567848 -0.22884649 0.34626245 -0.038343538 0.20102282 0.062311098 -0.12190239
-0.030727237 0.2892227 -0.30527315 -0.15954518 0.11934061 -0.1484749 0.07200499 0.0925629
0.09526024 0.15646599 -0.22060241 -0.24503937 0.19706683 0.029350575 0.20790066 0.20731227
0.0019731533 0.21780549 -0.09295945 0.055997066 0.15129189 -0.41189498 -0.14548509 -0.12597348
0.052085087 0.12150237 0.08823571 -0.02265834 -0.27445695 -0.1197185 -0.18324398 -0.12377988
0.027407989 -0.06385549 -0.048692785 -0.10171104 -0.002052698 0.1173972 -0.05656977 0.24790789
0.05374558 -0.28967673 -0.047414362 0.16489598 -0.35334057 -0.039874546 0.051066536 0.13526613
0.05078952 0.31183067 -0.15532313 -0.07723091 -0.12380252 0.05653984 -0.07916287 -0.4976496
0.032762878 -0.30091715 0.20977111 0.05589435 0.07837852 -0.1608088 0.1959746 0.39161745
0.2269827 0.35676825 0.15064116 -0.07456374 -0.067376144 -0.26221353 -0.021590028 -0.08396207
0.25815326 -0.17366192 0.3642533 -0.081193835 -0.00024904314 -0.09059472 -0.69010526 0.1407454
-0.61912835 0.03133371 0.1035718 0.20155172 0.08800139 -0.14223374 0.24726084 -0.12942392
0.090541296 0.115879856 0.074651994 -0.0254849 -0.2928285 0.17013837 0.14707144 -0.05001665
0.18264087 0.19604383 0.18622564 -0.029860096 0.111521445 -0.038423855 -0.2068473 -0.047713663
0.25851136 -0.18774101 -0.040378183 -0.17447783 -0.06321565 -0.016985778 0.1314283 0.3677257
0.087490395 0.084855035 0.051116746 -0.025381556 -0.09356725 0.14386539 -0.09548464 -0.37998292

net.2.bias f4 [64]
00000000: 7fc8 80be 0781 66bd 75cd 413e 0a04 783e
00000010: 5ff5 2f3e 7b06 7d3d 4864 0f3d 1981 303e
00000020: cba0 87bc b730 2dbe 0b0d 0b3e 7408 06be
00000030: 04c9 863d 3266 06be c4f7 d9bc c852 11be
00000040: efc0 85bd 24ca 1e3e b284 843c 3dd7 e63d
00000050: 590d 103e fbff a23e 1c2b 193d 6e5a 2a3e
00000060: 7260 efbd 935a 563c c4aa 92bd e9c0 463d
00000070: 5cc6 bbbd 4827 16be ce89 37be 1c2e dabd
00000080: 969b 253c 7008 0e3e 58c5 3b3e a992 a73e
00000090: 00b7 923e e04f 8ebc 3cfe 87bd 02b7 58bd
000000a0: e7ab c0bd a116 80be b26c 94be 615a 69be
000000b0: da38 b33e 0dd4 60be 41d8 f23c 35ad 0f3e
000000c0: 13a8 8fbe c0c3 20be ca26 a03d 0a30 ce3d
000000d0: 55e9 23be 9a1e 673e 8387 113e 0683 c2ba
000000e0: 7a91 223c 167e cabd d863 a23d 99dc 353e
000000f0: c6ce 9c3c 1ef1 c23b 444b 50be 2f88 aebd
-0.25152966 -0.056275394 0.18926032 0.24220291 0.17183445 0.06177376 0.035007745 0.17236747
-0.016556164 -0.16913114 0.13579194 -0.13089162 0.065813094 -0.13124922 -0.026607402 -0.14191735
-0.0653094 0.15506798 0.016176555 0.11271522 0.14067592 0.31835923 0.037394628 0.16636059
-0.11688317 0.013083118 -0.07161477 0.048523817 -0.091686934 -0.14663422 -0.17923662 -0.10653326
0.010107895 0.13870406 0.18337 0.3272908 0.28655243 -0.017372072 -0.06640288 -0.052908905
-0.09407788 -0.25017264 -0.28989178 -0.22788383 0.35004312 -0.21955891 0.029644134 0.14030917
-0.28057918 -0.15699673 0.078198984 0.100677565 -0.16006978 0.22570267 0.1421185 -0.0014840073
0.00992238 -0.0988733 0.079292 0.17759933 0.019141566 0.0059491536 -0.20341212 -0.08522069

net.4.weight f4 [40, 64]
00000000: 93a0 39be d71b 24bf 0cb6 bebe 2184 99bf
00000010: 0384 f1bf 854e dcbe 18ac 68bf 5770 b5bf
00000020: e93b 0dbe 63a5 febd d85f aebe af07 04bb
00000030: 9f5d bdbd 3cb1 05be d41d 9cbf f9c0 d53b
00000040: f615 02bf 83a9 f7be 7e2d 08bf 4888 1fbf
00000050: 0fa9 99be 6f0a 01bf 7c4a 93be 0642 36bf
00000060: 304f aebd 2c6d 53be f0e5 33bf da3b c7be
00000070: c17f 01bf 1a09 1ebf f1e4 0ebe 329f f2be
00000080: c926 1dbf 5ebd f0be 49b0 6dbf 1389 3dbe
00000090: ef03 cbbe 8118 6dbe d3ed c0bd 08dd 18bd
000000a0: 8126 2cbe 9ac6 46be 89fa 66be e23c 53be
000000b0: b143 d0be 9407 2abe 21ec a4bf 5183 95be
000000c0: 858f 8dbd 3f91 96be 2a0d b0be 296c 41bf
000000d0: ccea f7be 3673 59bf d9a6 dfbc 5e7d 9abe
000000e0: d163 d7bd ac24 82be 7da3 12bf 52f9 f3be
000000f0: 9dcd 65bf 19f4 17bf 955f 70be a08b 6ebf
00000100: be05 41c0 38cf b03d 77cd 74be cf11 503e
00000110: 23eb 7b3d c277 463e 732c 1abe 1cd1 1b3e
00000120: 8f7e 3c3d 3ddb 903d 2fbd 00bf 8534 2cc0
00000130: 9121 bfbd aa6c da3d ab60 78bf 9337 4dbd
00000140: 4d78 123f 6940 4cbf 9b81 c23d 9c24 a4bf
00000150: 7804 3f3d 74d8 e73d a3d1 f4be fb81 f3c0
00000160: e025 0dbe 6f18 bdbf ce62 b7be 6ebe 8cbf
00000170: d4d4 68bf e91f 9bbf 39c2 fabf 431d 0f3e
00000180: 64c1 b63d 28cc 1b3e e41f 84bf b809 78c0
00000190: 4439 0ec0 897a a8bf cf86 81c0 8e64 afbe
000001a0: f797 a5be 9fbf 833c b8cc b3be 8aea 03c0
000001b0: eb8f 973d f10e f83d e829 dbbe a41e 84be
000001c0: a74c b73e 4fcf 04bf 9c17 4e3e 2a75 bd3d
000001d0: ad96 a9bd 46d9 073f 8dcc 333f 8f13 e7bc
000001e0: bde8 b6bd a6e4 db3d cded 283e 5934 113e
000001f0: f253 8cbf 7ffe 033e 5c22 02c0 e837 31bf
00000200: 24eb 70bf 7fad 8bbe 86cd 8fbe e5a8 f9bd
00000210: c09b 293e 941c e03d c624 8bbd aec0 fc3b
00000220: 6d75 01bf 87f5 b1be 4a50 5abd 22c1 4bc0
00000230: d5cc 7dbe aef5 18be eac6 293d 2501 a43d
00000240: 5ef0 21bf 5495 cbbf 43cd 5cbe 6dd8 0ebd
00000250: 0054 04be b5c2 2ebe 6a07 22be c8d5 bcbf
00000260: 5b3a 59bd 5222 c0bf 2812 3ebe 34ef a5be
00000270: c894 86bd c4a8 093e 1274 60be ca36 88bf
00000280: 0ec7 813c e37b 96be 41bd 863e b9b9 b1bd
00000290: cd3f 1bbf 6ced 10bd 3cc4 afbf da19 72bf
000002a0: 80b8 f3bf 2ae3 49bf 5c72 42bf 5774 97bf
000002b0: 43ad cfbe d066 063f e0ab 9dbb 2beb 7fbf
000002c0: 4fee 68bf 6bec d2be 197c 6dbd 4653 b4be
000002d0: abf4 57bf 308b 76bf 6052 c7bf 25de a33c
000002e0: 543a acbe 02c2 443e cf7f 163c 6466 0a3e
000002f0: a6ad 6cc0 f31f 99bf 3164 8ebb 82e9 bcbf
00000300: 192c b13e f3eb b0bd d368 19be a1e4 cdbe
00000310: 40f2 9a3d 0985 74bf 5ed8 c73d 3ad6 e3bd
00000320: 8f0f a4bf 2e9a 7bbe 64cb efbc 517a d93e
00000330: fa87 61be e66e 9abe 2814 213e a78f 0e3d
00000340: ed64 0bc0 9b7a efbf f937 43bf ebe7 2e3d
00000350: a198 6dbe b36b 50bd 640f 91bc 6c29 ed3c
00000360: c486 a73c cedc 9abe 67e9 08bd 3ccf 293e
00000370: 056f c53d 9ca6 75be 21bd ac3d 36cc 8cbf
00000380: 8c1f 1dbe 0144 96bf 4b51 a7be 8744 2abe
00000390: 936e 0ac0 7174 7ebf e3c1 f8be a26c d5bd
000003a0: 9242 e9bf 115e 9e3d 4962 693d 3151 f43d
000003b0: 539f 85be cda7 32bf a2f3 c0bd 2ca2 04be
000003c0: c3a4 703e ed0a a13e ffac 593b 9a2d 05be
000003d0: c02b f4be b5df f3bf 163e ccbf 3cf7 443e
000003e0: 3420 683e a1fd b7bd 8d72 cfbc d8de eebb
000003f0: 9a98 60c0 65eb 7cbf bdcf 96be 3929 97bf
-0.1812766 -0.6410498 -0.37248266 -1.1993448 -1.8868412 -0.43028656 -0.90887594 -1.4174908
-0.13792385 -0.12433889 -0.34057498 -0.0020146181 -0.092463724 -0.13055891 -1.2196603 0.0065232483
-0.5081476 -0.48371515 -0.53194416 -0.62317324 -0.30011794 -0.50406545 -0.28767765 -0.71194494
-0.085111976 -0.20647115 -0.7027273 -0.3891285 -0.5058556 -0.6173264 -0.13954522 -0.4738708
-0.61387306 -0.47019476 -0.92847115 -0.18509321 -0.3965144 -0.23153879 -0.09420361 -0.037320167
-0.16811563 -0.19411698 -0.22556509 -0.20628694 -0.40676644 -0.16604453 -1.2884561 -0.2920175
-0.0691214 -0.2940769 -0.34385043 -0.75555664 -0.48421323 -0.8494142 -0.027301239 -0.30173773
-0.10517085 -0.25418603 -0.57280713 -0.47651154 -0.89766866 -0.5935684 -0.23473962 -0.931818
-3.0159755 0.08633274 -0.23906504 0.20319293 0.06150354 0.19381621 -0.15056019 0.15216488
0.046019133 0.070730664 -0.5028867 -2.6907055 -0.09332574 0.10665257 -0.97022504 -0.050101828
0.57214814 -0.7978578 0.094973765 -1.2823672 0.04663512 0.11320582 -0.4781619 -7.6096168
-0.1378398 -1.4773082 -0.3581757 -1.0995615 -0.9094975 -1.2119113 -1.9590522 0.13976006
0.08923605 0.15214598 -1.0322232 -3.8755932 -2.2222452 -1.3162395 -4.047706 -0.34256405
-0.32342502 0.016082583 -0.35117126 -2.0611901 0.07400497 0.12112225 -0.4280541 -0.25804627
0.3580067 -0.5187883 0.20126194 0.09250863 -0.08280692 0.5306591 0.70233995 -0.028207568
-0.0893111 0.107369706 0.16496964 0.14180125 -1.0963118 0.12890051 -2.0333471 -0.6922593
-0.94108796 -0.27280805 -0.2808649 -0.12190417 0.1656332 0.10942951 -0.06794123 0.007713399
-0.505698 -0.34757635 -0.053299226 -3.183663 -0.24785168 -0.1493747 0.041449465 0.08008031
-0.63257396 -1.5904946 -0.21562676 -0.03487437 -0.12922668 -0.17066462 -0.1582314 -1.4752741
-0.053034168 -1.5010474 -0.18561614 -0.3240906 -0.065713465 0.13443285 -0.21919277 -1.064172
0.015841987 -0.29391393 0.26316264 -0.08678002 -0.6064423 -0.035382673 -1.3731761 -0.94570696
-1.904068 -0.7886225 -0.7595575 -1.1832379 -0.40561876 0.5250063 -0.004811749 -0.9996821
-0.9098863 -0.41195998 -0.057979677 -0.35219783 -0.8435771 -0.96306133 -1.5572014 0.020003388
-0.3363825 0.19214633 0.009185745 0.13515621 -3.6980987 -1.1962875 -0.00434544 -1.4758761
0.34603956 -0.08638754 -0.14981394 -0.40213493 0.07565737 -0.95515496 0.09758066 -0.11124845
-1.2817248 -0.24570534 -0.029271789 0.42476133 -0.22024527 -0.30162734 0.15730345 0.034804966
-2.178035 -1.8709291 -0.7625728 0.042701643 -0.23202755 -0.05088396 -0.017707534 0.028950416
0.020450003 -0.30246586 -0.033425715 0.1658296 0.09640316 -0.23989338 0.08434511 -1.099982
-0.15344065 -1.1739503 -0.3267921 -0.16627704 -2.162999 -0.99396425 -0.48585424 -0.10421111
-1.8223441 0.077327855 0.056978498 0.119295485 -0.26098117 -0.69787294 -0.09421469 -0.12952489
0.23500352 0.31453648 0.0033214686 -0.13005677 -0.4768963 -1.9052645 -1.5956447 0.19234937
0.22668535 -0.08983923 -0.025323177 -0.0072897486 -3.509314 -0.98796684 -0.29455367 -1.1809455

net.4.bias f4 [40]
00000000: 27ef 15bf 6fb6 2d3c 954b 3fbe a8c5 33be
00000010: 712e 3cbe d57d cebe a67f 22be 92bd 55be
00000020: 7a1a f13d 1002 9a3b 5f62 1bbf 5d8f 1ebf
00000030: bb37 dfbb f41e 09bf bed6 57be 56a4 ba3c
00000040: e7df 2c3e 8ed1 d23e fd8d 84be 7d40 43bc
00000050: 5c1e f2be f29f fcbe fdef 0dbf 525f 333e
00000060: 98a3 0dbf b77d 15bd ef5b 08bf 17d6 2fbe
00000070: 599a d6be d89c 17bf 32e9 883e 20ad 1bbf
00000080: ba58 0cbf 2301 01bf 4c44 2abd 8fdd 163e
00000090: bed6 06bf fff9 cdbe e6ed 08bf 756b 00bf
-0.5856804 0.010602578 -0.18681176 -0.17555869 -0.18377091 -0.40330377 -0.15869007 -0.20873097
0.11772628 0.004699953 -0.6069698 -0.61937505 -0.0068120635 -0.53562856 -0.21078011 0.02278344
0.16882287 0.41175503 -0.25889578 -0.011917231 -0.47288787 -0.4934078 -0.5544432 0.1751683
-0.5532775 -0.036496844 -0.5326528 -0.17171513 -0.41914633 -0.592237 0.26740414 -0.6081104
-0.54822886 -0.5039236 -0.04156904 0.14732955 -0.5267142 -0.40229794 -0.53488004 -0.50163966
